Acrobot_dqn.onnx (onnx, 16453 bytes, 4 tensors)

0.weight f4 [152, 6]
00000000: dacb ff3f d9b3 413f beba 5a3f 0759 a83e
00000010: 479e 1ebf 304e 96be adf6 e33f 9c92 e73c
00000020: af8d c73c 6ecf f0bf 8593 953e c559 99be
00000030: 72c7 613f c21f 3840 b3f2 d53e 549b d1bf
00000040: ac47 84be 6027 a93e 0dbd b63d fa3c b7bc
00000050: 9298 233c b806 26bd e28f 443b 52c7 4f3c
00000060: c50a 7e3b 1b08 94bf 85d2 033f 4aad 89be
00000070: 7c59 2a3d da8f 2bbe 403c 173e abd3 87bc
00000080: c56c 60bf 743c 05bf 96cf 3dbc 86e0 96bd
00000090: 564b e7bb 182d 573f 7b47 35c0 84d0 4b3f
000000a0: 1dc8 3d3f 16b1 99be 90c5 f5bd b427 4f3d
000000b0: ddfe 1c3d 5d3f 2d3d 92b1 123d a1b4 c83b
000000c0: 6265 c2bc f14d 13bd 965f f73f 38f5 143f
000000d0: b3e7 b23f 6fd2 013f 1bbf 19be d0cf dabf
000000e0: 81d4 cfbf 57cb 9f3f 3050 353c 02c7 19bf
000000f0: a7ac d2bd fd3f 30c0 437f ef3d 7ef5 e6bf
00000100: 37e9 933f 6377 593f 8045 ed3f fc44 b63e
00000110: 41ec 873f 40a9 1e3f db81 f23e 96b8 fa3e
00000120: 5a2e 913d 8caa 1cc0 2bdc a93f 380c 54bf
00000130: 0773 b33f 79e8 cf3d 9763 123e 9401 54bf
00000140: 8791 8f3f 1883 e4bf da27 86bf 1ae4 b3be
00000150: ada4 97bf bd3a 3e3d a820 b7bf bd7d 5a3f
00000160: 8633 c63e 488a eb3e e235 b33f 77af 0bc0
00000170: 3230 863f 52d8 bfbd eef5 553f 8083 8f3e
00000180: 410a ed3f 654f 8fbe b366 063c 5254 bdbe
00000190: 660b 383f 35a9 033e c264 a9bf 4353 61bd
000001a0: 93a7 afbe e0b9 6abd ce5e 39bf 7304 993c
000001b0: 84e3 9ebe 1a7d 323f e11a 6c3f 8d30 043f
000001c0: e960 d7bf 56aa c5be b998 cc3f 8e11 c1be
000001d0: 324b 103f 4a5e a0bd 2258 b93e 2907 933e
000001e0: 9845 d5bf 5cac 2cbe 518a 19c0 e8c4 97bf
000001f0: 01c8 583f cb78 9c3f 96ee cd3f 8657 ddbe
00000200: 7cca 0d3f f599 9ebe d0e4 e2bc b135 7cbe
00000210: 8ecc 75bf f26c fc3f 5403 57bf bc0e abbf
00000220: dc19 75bd ded8 553f 972d ac3f a86a c0be
00000230: 06b3 fe3e 0fbc acbf 7472 873e 7a9b ba3e
00000240: cad6 9f3d a37f 9cbf bece 31bf 6e98 32bd
00000250: f2c1 b43f c70f a8bd 57f5 ba3e 521c 0b40
00000260: 65c1 0fc0 dd1c b9bf c01b 3cbe 267d 2b3f
00000270: c0d1 55bc f17e 0940 7851 6e3f 77d7 ae3d
00000280: 9a6a 853f a290 6bbf ac6d b63f 888c dd3f
00000290: 6841 fc3f fec5 77bf 7301 e63e 6043 1f3f
000002a0: 9125 b6bf d9ea 3abd b168 823e df63 3d3f
000002b0: 54cb 0bbf be28 70be cfa9 a33f 1fcf d0bd
000002c0: 88bd 393e 39df 0e3e f330 983d a296 433e
000002d0: 521e d43f dfe9 14bf 30f7 b3bf 5f53 773e
000002e0: 7da5 933e d67c 83bd 9a41 b9be f603 763f
000002f0: b602 033f 786c b43d 3def 17c0 56ec 13bf
00000300: 1a24 26be 4df9 fc3d 5cc9 a83d 5029 b63c
00000310: d5d5 bc3c b10c 003c 9460 143f 3533 35c0
00000320: 726f 2e3f 705c fc3f c6a6 383e c5ec c8bd
00000330: 16bd 7a3f f067 563c d217 cabe 890c e3be
00000340: ead2 d0bb 73cb 6bbe 9176 9b3f 6c04 433f
00000350: 8058 4f3f 7d50 eabe 4583 8fbe 20f2 b1be
00000360: a336 7b3d 8dcf 2b3d c307 013c 0fb3 973d
00000370: 8f67 f5bb da0b 61bb 3fce 55bf 8347 99bf
00000380: 27e3 fdbf 0524 f4be df13 4b3e 6b53 dbbe
00000390: 56ee 0cbe 41fe 993e e251 a1bd 2a75 713e
000003a0: 1f98 33bc 1b18 bf3c 6133 6bbf 8935 f1bf
000003b0: d648 a7bf c2bc 15bf c433 dd3e 79e1 8b3e
000003c0: 531b 3cbe 023c 04c0 4eba 353f d5d9 80be
000003d0: 9c8c 5cbf 29aa 483f ce56 f83d 782f 703d
000003e0: 60f9 adbb 2d6d 8b3c 2fa3 913d 7ad4 61bd
000003f0: 68bc 34bf 8cdf 7bbf 920c e93d 4e83 05bf
1.9984086 0.7566505 0.85441196 0.32880422 -0.6196026 -0.29356527 1.7809654 0.028268151
0.024359552 -1.8813303 0.2921411 -0.299513 0.88194954 2.8769383 0.41786727 -1.6375527
-0.2583593 0.33037853 0.08922777 -0.022367943 0.009985106 -0.04053375 0.0029992987 0.012681799
0.0038763743 -1.1564974 0.514931 -0.26890022 0.041589245 -0.16754094 0.14769077 -0.016580423
-0.8766597 -0.5204537 -0.011585137 -0.07367043 -0.0070585413 0.8405318 -2.8324878 0.79615045
0.74133474 -0.30017918 -0.12000573 0.050574973 0.038328994 0.042296756 0.035813875 0.0061250483
-0.023729984 -0.035963003 1.9326046 0.58186674 1.3976959 0.5071172 -0.15014307 -1.7094669
-1.6236726 1.2483929 0.0110664815 -0.60069287 -0.10286837 -2.7539055 0.11694195 -1.8043668
1.1555547 0.84947795 1.8536835 0.35599506 1.0618974 0.61977005 0.47364697 0.48968953
0.07088919 -2.4479094 1.3270315 -0.82831144 1.4019479 0.101517625 0.14295803 -0.8281491
1.1216286 -1.7852507 -1.0480912 -0.35134965 -1.184713 0.046442736 -1.4306841 0.8534811
0.38711184 0.46003938 1.4000819 -2.1825845 1.0483458 -0.09367432 0.83578384 0.28030014
1.8518754 -0.2799026 0.008203196 -0.36978394 0.7189239 0.12857516 -1.3233874 -0.055011045
-0.34307536 -0.05730617 -0.72410285 0.01867888 -0.31032956 0.6972214 0.92228514 0.5163658
-1.682645 -0.38606519 1.5984107 -0.37708706 0.5636474 -0.07830484 0.36200052 0.287164
-1.6661863 -0.16862625 -2.3990672 -1.1856966 0.8468018 1.2224363 1.6088436 -0.43230838
0.5538709 -0.30976835 -0.027696997 -0.24629857 -0.9601525 1.9720747 -0.83989453 -1.3363872
-0.059839115 0.8353404 1.3451413 -0.37581372 0.4974596 -1.3494891 0.26454508 0.36446744
0.0780464 -1.2226452 -0.6945609 -0.0436024 1.4121687 -0.08206134 0.36515304 2.1736035
-2.2461789 -1.4461933 -0.18369961 0.66987836 -0.013050497 2.148373 0.9309306 0.085371904
1.0423157 -0.9201757 1.4252219 1.7308512 1.970746 -0.9678649 0.4492298 0.6221218
-1.4230214 -0.045634124 0.25470498 0.73980516 -0.5460713 -0.23453042 1.2786196 -0.10195755
0.18138707 0.1395234 0.07431211 0.1910043 1.6571753 -0.5816936 -1.4059811 0.24152897
0.28837195 -0.06420295 -0.36182863 0.96099794 0.5117601 0.08809751 -2.373977 -0.57782495
-0.16224709 0.12352238 0.08241531 0.022236496 0.023051182 0.007815526 0.57959867 -2.8312504
0.681388 1.971571 0.18032369 -0.09810785 0.9794477 0.013086304 -0.39471298 -0.443455
-0.006372799 -0.23026828 1.2145559 0.7617862 0.80994415 -0.45764533 -0.28029838 -0.3475504
0.061331403 0.041945983 0.007875386 0.074071996 -0.007489152 -0.003433934 -0.8351783 -1.1974949
-1.9834946 -0.4768373 0.19831799 -0.4283708 -0.13762793 0.30076793 -0.07876946 0.23579851
-0.010961561 0.023326924 -0.91875273 -1.8844463 -1.3069103 -0.58491147 0.43203557 0.2732046
-0.18369798 -2.0661626 0.70987403 -0.25166193 -0.8615205 0.78384644 0.12125932 0.05863902
-0.005309269 0.017019833 0.07111203 -0.055134274 -0.70599985 -0.9838798 0.11379351 -0.5215348

0.bias f4 [152]
00000000: 20e2 233e 726e 8abd a9e3 c53e 4ef2 8bbe
00000010: 964e 28bf 907c e73d 1624 0bc0 9b53 6ebe
00000020: 450e 4cc0 c677 d0bf 7630 e43d b8a9 793f
00000030: 210e 76bf 4750 46c0 4aad adbf 52e8 b2bc
00000040: 0bf0 843f 6985 14c0 6585 08c0 1a10 c23e
00000050: a8e2 39bf 32ab 57bd 35ad 53bf 6dd4 d1bf
00000060: 3f22 e1be a241 82bd e629 d0bf fa76 453f
00000070: 3c60 cbbe d25b ab3e 1de8 063d 6355 83be
00000080: 3bd6 21bf 201f b63d ba57 3bbc d535 62be
00000090: 2ebf 36be 8645 2ec0 36fe 1fbf e311 a53c
000000a0: 4958 b7bf 1ce6 34be 3343 8dbf c59c 87c0
000000b0: 38ab f33d dddc 62bf 7c56 99bf e5ee 0ec0
000000c0: 241b c7bf 4954 c5bf 2227 3ac0 7103 20c0
000000d0: 8cbb 153e 64a5 433f 13ed 1c3f ab70 2cbf
000000e0: a3f7 19c0 ac3c 00c0 469d 5bbf 25c8 06bf
000000f0: 790c 8abf 4c31 9ebe b8a7 62bf 122a a8bf
00000100: 8c13 cabd 4b13 eebf cb6a 27c0 55cf ebbf
00000110: 2378 3cbe 1c9a 48c0 3f70 9d3c f358 f4bf
00000120: 33fd 6b3f c5fc 443e 86ad 173e 8e32 373f
00000130: b8c4 a5bf 4a20 96be ffc7 2a3e 5ca9 a6be
00000140: 1f37 06c0 bc6b 9fbf 0d07 283d d64a 283f
00000150: d887 b93f 5704 95bf 3971 bcbe 5c7b 3d3e
00000160: 10d3 633e 624d 91bf 5ca1 8bbf 05c5 36be
00000170: 6c8b e23e 5dc1 46c0 8bb2 87bf 6cd8 10c0
00000180: 136c 02c0 cbab 00c0 738b bbbf 7d94 77bf
00000190: eb6b 2bbe 8d20 52be 87c1 ef3d b276 923f
000001a0: dad8 7f3f a2ae 0d3f 8515 d5bf 0610 733e
000001b0: bc99 2cc0 11b6 f4bf 6b53 a8bf 5db7 0ec0
000001c0: 46eb 5cbf 02f6 84be d900 3f3f eeef 8dbe
000001d0: 744a 1e3e 2b00 fdbf bdff c2bf 1d37 dfbf
000001e0: 51f9 cfbf ad8e c3bf 1569 963c 9902 8dbf
000001f0: b588 c63e 866d 26bf 7cfa 91bf a79d 353f
00000200: d8c6 96bf 90b2 a1bf 3047 f0be 9fa4 803f
00000210: bff1 093f fcd9 6ebf d28d 10c0 528d bf3e
00000220: fdeb 973e c2b3 c13d c019 d93e 3403 aa3d
00000230: 1383 3e3f 507b 90bf 1877 38be 3497 95be
00000240: d6a4 513f 581f 273f 3858 163f e131 9abe
00000250: 4054 8bbe a47d 92bf 59e2 1c3f ec2a e1be
0.16004229 -0.06759347 0.38650253 -0.273333 -0.6574491 0.11303055 -2.1740775 -0.2327408
-3.188371 -1.6286552 0.11142056 0.97524595 -0.9611531 -3.0986497 -1.3568509 -0.021839295
1.0385755 -2.3206427 -2.1331418 0.3790291 -0.72611475 -0.0526535 -0.8268617 -1.6392952
-0.4397144 -0.06360175 -1.6262786 0.7713467 -0.39721859 0.3346849 0.032936204 -0.25651082
-0.63217515 0.088926554 -0.01143449 -0.22090848 -0.17846367 -2.7229934 -0.6249727 0.02015013
-1.4323817 -0.17665905 -1.1036133 -4.237887 0.11897892 -0.8861826 -1.1979518 -2.233331
-1.5555158 -1.5416347 -2.9086385 -2.50021 0.14622325 0.7642424 0.61299247 -0.6735942
-2.4057395 -2.003703 -0.85786855 -0.52649146 -1.0785056 -0.30896986 -0.8853717 -1.3137839
-0.098670095 -1.8599638 -2.6158931 -1.8422648 -0.18405204 -3.134406 0.019218562 -1.9089645
0.92183226 0.19237049 0.14812288 0.71561515 -1.2950659 -0.2932151 0.16677855 -0.32551086
-2.0971143 -1.2454753 0.04102235 0.6573919 1.4494581 -1.164195 -0.36805132 0.18504089
0.22248483 -1.135174 -1.0908618 -0.17848594 0.44246995 -3.105552 -1.0601362 -2.2632093
-2.0378463 -2.0104854 -1.4651932 -0.9671095 -0.16740386 -0.2052023 0.11706834 1.1442473
0.99940264 0.55344594 -1.6647192 0.23736581 -2.6968832 -1.9118062 -1.3150457 -2.2299416
-0.862965 -0.2596894 0.7461067 -0.27722114 0.15458089 -1.9765676 -1.5234295 -1.7438694
-1.624796 -1.5277916 0.018360654 -1.1016418 0.38776174 -0.6501087 -1.1404567 0.70943683
-1.1779432 -1.2632618 -0.46929312 1.0050238 0.538845 -0.9330137 -2.258656 0.37412506
0.29672232 0.09458114 0.42402458 0.08301392 0.74418753 -1.1287632 -0.1801418 -0.2921692
0.81892145 0.652822 0.5872836 -0.3011618 -0.27212715 -1.1444592 0.6128288 -0.4397806

2.weight f4 [3, 152]
00000000: d19c 13bf e2ba f5be 350c 18bf fecd 3fbc
00000010: e4eb 07be 9c35 06be 0d8b 3a3f c132 133c
00000020: 4ea9 913f 90ee 223f 01e1 5b3f 5f17 00bf
00000030: bd47 5e3f 429c 133f d68c 97bf 6a6b debe
00000040: 82dd 81be e0c2 05c0 26dc af3f 21ae 9dbe
00000050: deda 4d3f 54b4 a8be bdde 3f3f 3670 a0bf
00000060: be26 a83e 9c88 c9bf 9cfd 0f3f 5c87 6dbf
00000070: 3cc9 b1bf 9434 5cbe 9839 6abe 187f 763f
00000080: b9fb 063d f44d 1cbf d278 e0bd 1b0a c5be
00000090: 889b 8b3b 4971 823f f543 263d e21c 86bf
000000a0: 390c 2d3f d3d3 433d 604d 16bf 9e1d bd3f
000000b0: d20b 94bf 41dc b9bf 63bc 32bf e476 263f
000000c0: 5643 8abf 2cc7 1f3f df32 b03f 6b93 423f
000000d0: 102f 7b3f 5bfa 17bf 6374 11bf 28c4 07bf
000000e0: 92eb e73e 9c4d 63bf cb59 2bbf 2559 b5be
000000f0: 4711 88bf be16 a8bc caff e53e ffaf 3b3f
00000100: 02f3 6dbe 1707 443f 1c51 f1bf 4fe1 973f
00000110: 1261 6bbf 4fcc 813f f529 cfbe a8f2 e5bf
00000120: 84fc c8be ff8d babf 7c52 e4be ffa7 40bf
00000130: 22d0 c9bf d433 a63f 5434 f33b 19ea 16bf
00000140: 3380 d4bf 61d6 11bf 011b 36bf d4e4 1fbf
00000150: d430 ffbe fa3a e53e ead3 13bf 833f 443f
00000160: 6b79 49bf f6d0 9cbf 620d 47bf 7d2c d0be
00000170: ae33 50bf fbac 7d3f d496 863f bcc3 bc3f
00000180: 6a79 f13e 8f27 9e3f 389e b7bf 54b8 b13f
00000190: 2487 6cbe 9898 5abf 0668 9fbf c731 19bf
000001a0: eb38 babe 9094 75bd 592e cabf 98f2 a2be
000001b0: db62 933f 5a9e 94bf bca9 8bbf c197 19c0
000001c0: 988c 05be d720 54bc 87d7 a4be e108 79bb
000001d0: 63e8 e3be f043 823f 879e 99bf 5f34 8b3f
000001e0: 66fe 78bf c3a7 4bbf 1745 3abd 5d4d 02be
000001f0: 328a a0be 40d0 cdbe df48 bbbf 448f 8bbe
00000200: 2e33 91bf a4bd 0abf 832d 0ebf 3175 22bf
00000210: 09ab 19bf 17ce b2be 0009 f1bf bf21 94bf
00000220: 1947 6dbf 8d13 b6be 41d6 9abf 899a 1dbf
00000230: 5673 13bf 8745 af3f a26c 03bf b2ed 15bd
00000240: b136 343f 38c9 cabe 570b 96be db92 25bd
00000250: 9b99 6ebf 8817 ea3e 88ed ffbe c8f1 fd3e
00000260: 7276 febe 3ec5 18bf 1dad 2ebf 1e19 8bbb
00000270: d67d 08be 8086 9abd 2242 213f 6c27 8c3c
00000280: 204a 9c3f c2b0 4b3f 25ac 643f 6414 dabe
00000290: 29d2 6d3f 875d 213f 2703 7dbf 3e9d 28bf
000002a0: 8456 cdbe 0e51 13c0 7748 a93f 79da 89be
000002b0: 7d38 3f3f 7efb c0be cbc3 563f ae89 8ebf
000002c0: dfe3 e63e 0558 92bf eee4 213f 500d 70bf
000002d0: 0dc1 b5bf 161c 48be ae38 f9be d28d 4f3f
000002e0: e307 86bd 3fe1 0bbf e3c9 83be a2a7 dabe
000002f0: a176 4bbc ad5e 8a3f 697f 03bb 0d80 92bf
00000300: a486 203f 128d 10bb fed2 07bf 97a2 a73f
00000310: dfc3 77bf 768b bcbf e1bd 13be 1f88 4f3f
00000320: 9dd8 4ebf 337a 223f 8f89 bf3f a812 783f
00000330: 80ae 7d3f 0497 10bf b9e9 1cbf d10e 16bf
00000340: a755 d13e 1436 a7bf adc3 77bf 8679 05bf
00000350: 7e5d 24bf abf0 9a3c a9f2 433f 001f e13e
00000360: f541 a2be 016a 673f d731 01c0 66cd 8b3f
00000370: 43f2 9dbf ef41 7f3f a4a2 cdbe c8ca d7bf
00000380: d282 a6be 7386 9bbf 3223 05bf a198 07bf
00000390: 862a 8ebf 3bfd 913f a240 b7be 430e 21bf
000003a0: 4b45 bbbf b120 9abf 2b02 21bf ceca 1ebf
000003b0: bf2f 01bf 84fc e43e 445c 38bf 2963 563f
000003c0: be84 3cbf 3d34 abbf 5aa0 3fbf 4f34 99be
000003d0: 0dac 5bbf 7132 5b3f bb91 a33f f9dd c43f
000003e0: 0b94 443f 4700 993f e54d 8dbf a848 923f
000003f0: d350 47be e1d0 9dbf 3414 92bf 3ea7 0fbf
-0.5766116 -0.47994143 -0.59393626 -0.011706827 -0.13273579 -0.13106388 0.72868425 0.008984269
1.1379793 0.6364527 0.85890204 -0.5003566 0.86828214 0.57660306 -1.1839855 -0.43441325
-0.2536431 -2.0900192 1.3739059 -0.30796912 0.8041209 -0.3295008 0.74949247 -1.2534244
0.32842058 -1.5744815 0.5624635 -0.92784667 -1.3889537 -0.21504432 -0.22873533 0.9628768
0.032954905 -0.6105645 -0.10960545 -0.38484272 0.004260484 1.0190822 0.040592153 -1.0477564
0.67596775 0.047809433 -0.58711815 1.4774663 -1.1566107 -1.4520341 -0.69818705 0.6502516
-1.0801799 0.6241329 1.3765525 0.7600619 0.98118687 -0.5936639 -0.5681822 -0.53033686
0.45296913 -0.887903 -0.6693389 -0.35419574 -1.0630273 -0.020518657 0.44921714 0.73315424
-0.23237231 0.7657332 -1.8852878 1.1865634 -0.9194499 1.0140475 -0.40461698 -1.7964678
-0.39255154 -1.4574584 -0.4459418 -0.7525634 -1.5766642 1.2984567 0.0074220095 -0.58950955
-1.6601623 -0.5696774 -0.71134955 -0.6245854 -0.4984194 0.44771558 -0.5774523 0.7665941
-0.78700894 -1.225127 -0.77754796 -0.40658942 -0.81328857 0.9909207 1.0514779 1.4747233
0.47162944 1.2355822 -1.434516 1.3884377 -0.23098427 -0.8538909 -1.245362 -0.5984158
-0.3637155 -0.059956133 -1.5795394 -0.3182571 1.1514543 -1.1610825 -1.0911174 -2.3998873
-0.13041914 -0.012947283 -0.32195684 -0.0037999677 -0.44513234 1.0176983 -1.2001504 1.0875357
-0.9726318 -0.7955286 -0.045476045 -0.12724824 -0.31355435 -0.40197945 -1.4631613 -0.2725774
-1.1343744 -0.5419562 -0.55538195 -0.6346007 -0.60026604 -0.3492286 -1.8830872 -1.1572798
-0.9268661 -0.3556179 -1.2096635 -0.61563927 -0.57597864 1.3693093 -0.51337636 -0.036603637
0.7039595 -0.39606643 -0.29305527 -0.040423255 -0.93203133 0.45721078 -0.4998591 0.49598527
-0.49699742 -0.5967597 -0.682329 -0.0042449376 -0.13329253 -0.07545185 0.62991536 0.017108642
1.2210121 0.79566586 0.8932517 -0.42593682 0.92898804 0.63033336 -0.98832935 -0.6586493
-0.4010507 -2.3018222 1.322524 -0.26924494 0.7469557 -0.37691873 0.83892506 -1.1135767
0.45095727 -1.1433111 0.63239944 -0.93770313 -1.419954 -0.19541964 -0.48676056 0.81075776
-0.06544473 -0.54640573 -0.25739965 -0.4270602 -0.01241842 1.0810143 -0.0020064956 -1.1445328
0.62705445 -0.002205674 -0.53056324 1.3096493 -0.9678325 -1.473006 -0.14427902 0.8106708
-0.80799276 0.6346771 1.4963855 0.9690347 0.9909439 -0.5648043 -0.6129413 -0.5861636
0.4088566 -1.3063378 -0.9678295 -0.52138555 -0.6420516 0.018913588 0.76542145 0.43968964
-0.31690946 0.90396124 -2.018667 1.0922058 -1.2339557 0.9970998 -0.40163147 -1.6858759
-0.32521683 -1.2150406 -0.5200683 -0.5296727 -1.1106727 1.1405405 -0.35791498 -0.62912387
-1.4630522 -1.2041227 -0.62893933 -0.62028205 -0.5046348 0.44723904 -0.72015786 0.83745056
-0.7364005 -1.3375317 -0.7485405 -0.2992272 -0.85809404 0.8562384 1.2778848 1.5380241
0.76788396 1.195321 -1.1039397 1.1428423 -0.19464426 -1.232937 -1.1412416 -0.56114566

2.bias f4 [3]
00000000: cb58 e93c 3c4c 583d f27d 1fbe
0.028484723 0.052807078 -0.15575388
